mnist_model.pth (torch, 70256 bytes, 8 tensors)

model.0.weight f4 [20, 784]
00000000: 6810 b63c 948c 7dbc 38a3 c8bc 4ea0 e8bc
00000010: 1841 6dbc 207d 58bc c24c b53c 1017 8a3b
00000020: e0a3 beba e327 fbbc 00d1 deb9 580c d13c
00000030: a03b 26bc 650d c4bc 9201 c53c 60e7 023d
00000040: 44a0 4b3c 5e7a cdbc c8cc 183c c018 793c
00000050: 1e3a aabc d8a2 63bc 7a42 b6bc 6065 30bc
00000060: ac7c e8bc ac83 c3bc 2a07 8c3c b226 3fbc
00000070: 66c2 10bd 00b0 d4ba b0b6 2dbb 64f2 adbb
00000080: 8a6a 043c fb39 adbb dd8a 83bc 640d 87bc
00000090: 7057 5c3c 6225 a7bc e56c 0fbd 2c1e 313c
000000a0: a64c a6bb 9a65 ea3c a7a3 07bd c4ab a9bc
000000b0: 9279 06bc ae47 0a3d 0813 c23c 53bf d33b
000000c0: bcab c63c dd80 94bb 7db3 95bb e9f3 e43c
000000d0: 1cd6 bd3c 5e60 c13c 7cd3 c3bc ef88 113d
000000e0: 08f7 bd3b 8029 553b dd0e d43c 78d7 a6bc
000000f0: eb15 fb3b 606f d0bc 0964 a9bc 23d0 99bc
00000100: c6b2 88bc 5772 0cbd 6b9c 35bc b1ee e4bb
00000110: c33a eabc 87a6 a93c ea89 c93c 0fe2 cc3c
00000120: 5def 9bbc cea5 08bc 85cf 06bd a0df 08bd
00000130: d129 fb3c 7d07 a5bc 8ed0 ea3c ccb7 aabb
00000140: 2cd4 ad3c 4004 bf3c d4f4 9ebb 8e87 af3c
00000150: 84d0 7e3c 70e6 b53c e904 a63c 55c5 2cbc
00000160: eeb9 d7bc 06ff d0bc 4caa 953b 3077 4d3c
00000170: cac7 4d3c 0d7b 04bd 11f7 cb3c ae88 d7bc
00000180: fb14 08bc 2d9b d0bb 7b39 0bbb d789 cc3c
00000190: c762 3c3c b892 04bd 75b9 30bb 8611 433c
000001a0: 63c5 03ba 3c29 633c 4305 f73c a5cd 20bc
000001b0: ecf2 b6bb 4707 f3bc 799c 4a3c fcb3 52bc
000001c0: 22d4 e73c 3572 dc3c aae2 bb3b 0d28 073c
000001d0: 1771 7c3c bbdf 54bc 132d 5bbb 48fa 423c
000001e0: e744 edbc aa3d e9bc def0 e1bc 6163 c5ba
000001f0: 1f72 18bc bbf4 4f3c d9cf ef3c c055 e83c
00000200: cd58 a1bb 5286 163d 9ffb 95bc 4a8d b6bc
00000210: e43c 133d 7739 ee3b 6faf 9e3c 6ff3 a83c
00000220: 977b 0a3d 4bdd 223c 44ca 76bc aae6 4eba
00000230: 7a35 d5bc 0903 d2bb d6ab 923c 8168 923c
00000240: 4101 b1bc 29ff e43c bae8 4f3b 92a9 033d
00000250: 3eae b9bc 9914 e13c 01d4 73bc f11f e13c
00000260: 1fcc 3ebb 4632 113c a565 0ebc d533 533d
00000270: 583f 9d3c 9f32 6a3b 3ee5 5ebc 150e f83c
00000280: 4015 cfbb 826a d3bc 9f60 f93b 2733 a23b
00000290: f89b bf3c 5747 01bd 927a 0c3d f350 08ba
000002a0: b0ca ccbc 3932 65bc 86b9 be3b 979a ef3c
000002b0: ce92 42bc 0ec3 883c 40a7 8abc 4ba9 813c
000002c0: 453e b53c b1bc f93c 401c f0bb 2985 393d
000002d0: 1c84 133c 1217 2a3d 8e9f 9b3c 7d4a 423b
000002e0: 27ff 0c3b 3dcc 003d c222 673c 0add 863c
000002f0: a080 b93c 4777 463a 3e9c 933b 5a34 cfbc
00000300: 7480 75bb 6057 5e3c 0296 cebc 9708 063d
00000310: 7e9f 3f3c db8e d9bc 038b 683c ad79 913b
00000320: 79c3 be3c c252 c2bc 05c9 10bd f2b9 103d
00000330: a626 aebc 4d5f 193d 62a0 7bba 669f 1ebc
00000340: 883f 8cba 8fa5 da3b c7ac c9bb be03 37bc
00000350: a89e 113d 0e6e 683c 08ce 9dbc 8e66 9ebc
00000360: 05e8 143d 69f7 22bb d46c bfbc c709 f3bb
00000370: 3c5f 043d cdb9 b0ba a63e ad3b ea7f 32bc
00000380: a028 f6bb 2cb6 aabc 1b10 e53c c8ef 693c
00000390: e925 063d f9ca 3bbb 0b08 eebc f1c5 033d
000003a0: fe29 92bc 45b3 b33c 6b2a d63c 3969 243b
000003b0: f0fb 00bd 0d6f 42bb 671b 293c bae4 2fbc
000003c0: 0e6d ecbc 6297 d63c 9779 5c3c 437a 0dbd
000003d0: 3d3c cc3c 6807 943c b03c 03bd 706d 0c3a
000003e0: 63e6 59bc 45af f13c f4c2 d53c 754c a53c
000003f0: a735 c6bc 14ea c7bb 0d89 bbbc 5880 89bc
0.02222462 -0.015475411 -0.024491891 -0.028396752 -0.014480852 -0.013213426 0.022131328 0.004214175
-0.0014544688 -0.030658668 -0.00042498857 0.025518581 -0.010146052 -0.023932168 0.0240486 0.031958938
0.012428347 -0.025082763 0.009326167 0.015203655 -0.020779666 -0.013893805 -0.022248495 -0.010766357
-0.02837976 -0.023866497 0.01709326 -0.0116669405 -0.035341643 -0.0016226768 -0.0026506595 -0.005308436
0.0080820415 -0.005286453 -0.016057426 -0.016485877 0.013448581 -0.020403568 -0.03501596 0.010810416
-0.005075055 0.0286129 -0.033115055 -0.020711787 -0.008207696 0.033759765 0.023690715 0.0064620166
0.024251811 -0.0045319633 -0.004568516 0.027948337 0.023173384 0.023605522 -0.023904555 0.03553098
0.0057972707 0.0032525957 0.025885994 -0.020366415 0.007662525 -0.025443733 -0.020677583 -0.018776005
-0.016686808 -0.03428873 -0.011084656 -0.006986462 -0.028592473 0.02070929 0.024601895 0.025010137
-0.019035036 -0.008340312 -0.03291275 -0.03341639 0.030659588 -0.020145172 0.0286639 -0.0052098986
0.021219335 0.023317456 -0.004850963 0.021426942 0.015552644 0.022204608 0.020266013 -0.0105450945
-0.026333775 -0.02551223 0.00456742 0.012540624 0.01255984 -0.032343913 0.024898084 -0.026310291
-0.008305783 -0.0063661546 -0.0021243978 0.02496807 0.01149816 -0.032366484 -0.002696601 0.011906033
-0.00050266663 0.0138648115 0.030153876 -0.0098146545 -0.0055831578 -0.029666556 0.012366408 -0.012860294
0.028299395 0.026909927 0.0057338076 0.008249295 0.015407822 -0.012992795 -0.0033443614 0.011900492
-0.02896352 -0.028471787 -0.027580675 -0.0015059524 -0.009304552 0.012692626 0.029273914 0.028361201
-0.004923916 0.03674919 -0.018308459 -0.022284169 0.03594674 0.007270034 0.019370763 0.02062389
0.03380927 0.009940456 -0.015062872 -0.0007892648 -0.026026476 -0.006409053 0.017904203 0.017872097
-0.021607043 0.027953701 0.003172441 0.032144137 -0.022666093 0.027475642 -0.014882089 0.027481051
-0.0029113365 0.008862084 -0.008691226 0.051563103 0.019195244 0.003573574 -0.01360446 0.030280152
-0.006319672 -0.025807623 0.007610395 0.0049499455 0.023389801 -0.031562176 0.03429658 -0.00052000507
-0.024998993 -0.013989025 0.005820456 0.029248519 -0.011875821 0.016694572 -0.016925454 0.015827795
0.022124419 0.030485483 -0.0073275864 0.045293007 0.009003665 0.041525908 0.01899698 0.002964645
0.0021514387 0.031444777 0.014107408 0.016462822 0.022644341 0.00075708743 0.0045047095 -0.025293518
-0.0037460597 0.0135706365 -0.025218014 0.032723036 0.011695741 -0.026557377 0.014193299 0.0044395537
0.023286568 -0.023721103 -0.035347957 0.03533358 -0.021258663 0.0374444 -0.0009598789 -0.009681558
-0.0010700086 0.006672568 -0.00615463 -0.011170326 0.035551697 0.014186395 -0.019263282 -0.019336011
0.036354084 -0.0024866706 -0.023367323 -0.007416937 0.032317385 -0.0013483107 0.0052870093 -0.010894755
-0.007512167 -0.02083882 0.027961781 0.01427836 0.032750998 -0.0028654917 -0.02905657 0.032171194
-0.017842289 0.021936068 0.026143273 0.0025087132 -0.031490266 -0.0029668242 0.010321475 -0.010735685
-0.028860595 0.026195232 0.013456724 -0.034540426 0.024931068 0.018069938 -0.032040298 0.00053568836
-0.013299557 0.02950252 0.026093937 0.02017806 -0.024195505 -0.0061009023 -0.0228925 -0.016784832

model.0.bias f4 [20]
00000000: 0098 b13c 7bb8 793c a751 d0bc c7d0 bbbc
00000010: fabe 53bc 135f edbc d5ee 9a3c 0d43 a6bc
00000020: 22cd 503c edc8 e2bc 049f 273c 5576 243c
00000030: 363e 893b 0718 ba3c 1424 cb3c 2175 ef3b
00000040: e3fd 0e3b cfad a93c fac2 97bc aa38 ad3c
0.021678925 0.0152417375 -0.02542956 -0.022926701 -0.01292395 -0.028975999 0.018912712 -0.020295644
0.01274422 -0.0276837 0.010230783 0.010037978 0.0041883243 0.022716535 0.024797477 0.007307664
0.0021818809 0.020712761 -0.01852559 0.021145184

model.2.weight f4 [20, 20]
00000000: 5bdb 3d3e 51d7 a83c 1073 e03d db0a f2bd
00000010: efca 73be ef95 d1bc 6bb3 793b a4e3 4b3e
00000020: 75c0 91bd a60c 04be 47db 15be 5826 113e
00000030: 008d 6a3e f979 12be 1b46 bb3d a3b2 843e
00000040: 54b2 c8bc 0858 45be 490f 2cbe db44 923a
00000050: 7a37 1cbd 31b2 bbba 8fd1 373d ffe7 463e
00000060: 4ca7 253e 6768 353e c3e4 833d a56a 763e
00000070: b498 88be 79ab 35be 27b2 94bd 8b09 6dbd
00000080: 57a6 e43c 4195 633e ddfb b9bd d716 d6bd
00000090: f631 bc3d 98ec aebd a1f3 463d f973 5b3e
000000a0: 5e98 96bd 3bce 043e f317 613e 8ec6 afbd
000000b0: 4a5a 25be 1cd7 3cbe bd14 cebd 073b 783e
000000c0: cc6f 22be 5df8 913d e84c 51be bf53 193e
000000d0: ff67 8f3d db23 543e 45bf e53d f412 7b3c
000000e0: 8005 4f3e 3227 28be a888 58be 2272 d73d
000000f0: cd06 163d 5048 ae3d c836 56be f242 253d
00000100: bec7 b33d 4193 083b cc43 1e3e 2420 4abe
00000110: 0e02 913d 6450 b33d c4e2 0d3d 286a e03d
00000120: cfd5 b93d 5172 2abe e506 57be 42fa 7a3c
00000130: 10f9 cb3d d22d d1bc aa5e da3c 8f4c 2abe
00000140: 6c29 503d 9dae d8bc 339d 663e 1c2d 9abd
00000150: ea3e 683c 7561 08be 055c 68bd db9c d6bc
00000160: 2c49 34ba 0c0d 0f3d 4c93 033e c2d9 13be
00000170: 3f49 3f3e 9592 313e c3fd f53d 6796 923d
00000180: 8bee a93d 6005 393d c534 5dbe 9d77 f93c
00000190: c686 dabc 56e7 cbbd e804 1b3e a82a 073e
000001a0: b82f 86bd 74ad 093d 02cc 093e 83e6 44bd
000001b0: 1f9a 04be a8d3 35be 050b d6bd ffc0 853a
000001c0: e1d1 61be 7b49 ce3d 7d0b ca3b e6fe eabd
000001d0: 7786 49be 6c75 e638 ca2b 23be fb9f 363e
000001e0: 889d 22be 7a79 0ebd 37ba 583c 0b20 eebd
000001f0: ee30 84bc 6940 65bc 9b4d 863d c50e 89bd
00000200: ce60 b53d 0367 0ebe 4cf3 673e 0612 4f3e
00000210: d4ec 12be fb73 eebd d355 acbd 085c 5c3c
00000220: 4c23 22bd adcf 1d3e c083 eabd 2997 003e
00000230: 9d8a 643e 316e 60be e7ca 86bc 546b 9abc
00000240: 4d1a 5bbd 0cb3 4dbc 42e3 80bc fcd0 fb3c
00000250: b352 3a3e 5ca4 00be 8999 5a3e 17ab 173e
00000260: 41ab 113e fb45 253e 39c8 43bc 0261 2c3e
00000270: 3e4c 193e 88b0 d53d 131f 283e 890d 47bc
00000280: 3c84 44bd cfca 2e3e 7a7e 9abe ccb0 7d3e
00000290: 6237 a23e c3c0 3d3e 4bd9 9fbc 3ae2 7fbe
000002a0: 52a2 a83e ba6f 973e ff1f 833e 6504 cf3d
000002b0: 0cfe 8dbe 51cc e03d bd6a aebd 7a33 16be
000002c0: d826 203e 93b0 583e df43 323d 3839 9fbe
000002d0: 9106 063e 9339 e13d 48fb 443e 0eff f53d
000002e0: d0af d6bd 728c 593e 7fee 27be 09c0 d63d
000002f0: 676b fabc 4f3e 95bd 8ab5 c63c b739 2c3d
00000300: b780 32be 72c9 5c3e ce3a a8bd 7cbf 31be
00000310: 481d ecbb 0f94 593e 2ce2 2ebe f9a5 2bbe
00000320: aabe 37ba 9613 903d 6711 223e 2440 40be
00000330: b5bc 5cbe e3e7 29be 0f7a 373d d26c 21bd
00000340: 3bb2 31be 83a3 ecbc 4bcc cebd a92a 2abe
00000350: da11 ea3d f402 d73d d734 77bd 5a6d a73d
00000360: c0af 853d 594c 6bbe e0af e5bd 7f0b 3cbe
00000370: d431 2cbc 2d40 143e 7862 9abd 1f18 b0bd
00000380: d147 4fbe f62e 493e 096c 36be 8229 3d3d
00000390: 5467 25bb d390 3cbd 7efd 4e3e 5489 ff3c
000003a0: 697c 3f3e 306c 06be 80c1 f9bc 76b3 f53a
000003b0: 9203 f03d eac5 453d 0f76 f0bd 9e9b 59be
000003c0: 3e19 4e3c b13a 33be 59ee 16be 5cf0 a6bd
000003d0: e7ea eb3c 59d2 b3bd 2930 5ebd 5d83 383e
000003e0: 6636 43bb e44b 1cbe f693 64bd 60fd 51be
000003f0: 844f 633e 3cdd 18be e862 5b3e 3264 763c
0.18540709 0.020610483 0.109594464 -0.11818477 -0.23807882 -0.02558419 0.0038101326 0.19911057
-0.071167864 -0.1289545 -0.14634429 0.14174783 0.2290535 -0.14304341 0.09144231 0.2591754
-0.024499096 -0.19271863 -0.16802706 0.0011159437 -0.038138844 -0.0014320073 0.044877585 0.19424437
0.161771 0.17715608 0.06440117 0.24064119 -0.26679003 -0.17741193 -0.07260542 -0.05787043
0.027911348 0.22224905 -0.09081242 -0.10453575 0.09189217 -0.085412204 0.048572186 0.21430959
-0.073532805 0.12969296 0.21981792 -0.08582793 -0.16147724 -0.18441433 -0.10062549 0.24241267
-0.1586296 0.0712745 -0.20439494 0.14973353 0.070022576 0.20716803 0.112181224 0.015324343
0.20216942 -0.16421202 -0.2114588 0.10519816 0.03662758 0.08509886 -0.20919335 0.040347047
0.08778332 0.0020839723 0.1545555 -0.19738823 0.0708047 0.08755568 0.03464009 0.10957748
0.09073984 -0.16645171 -0.20998724 0.015318455 0.09959614 -0.025534544 0.026656467 -0.16630767
0.050820753 -0.02645045 0.22520904 -0.07528135 0.014175156 -0.13318427 -0.05672838 -0.026197841
-0.00068773585 0.03492455 0.12849158 -0.14438537 0.18680285 0.17341073 0.12011292 0.07157593
0.082974516 0.04517114 -0.21602161 0.030452544 -0.026675593 -0.09956233 0.1513859 0.13199866
-0.065520704 0.033612683 0.13456729 -0.048071396 -0.12949418 -0.17756522 -0.104513206 0.0010204612
-0.22052719 0.10072609 0.0061659203 -0.11474399 -0.196802 0.00010989126 -0.15934673 0.17834465
-0.15880406 -0.034783818 0.013227991 -0.116272055 -0.016136613 -0.013992407 0.06557771 -0.0669227
0.08856355 -0.13906483 0.22651404 0.20221719 -0.14348155 -0.11643215 -0.08414807 0.013449676
-0.039584443 0.15411253 -0.114509106 0.12557663 0.22318502 -0.21917035 -0.016454173 -0.018850006
-0.05349188 -0.012554895 -0.015733365 0.0307393 0.1819561 -0.12562698 0.21347632 0.1481136
0.14225484 0.16139977 -0.011949592 0.1683388 0.1497049 0.10434061 0.16418104 -0.012149223
-0.04797767 0.17069553 -0.3017462 0.24774474 0.3168288 0.18530564 -0.019512793 -0.24988642
0.3293634 0.29577428 0.2561035 0.1010826 -0.27732885 0.1097647 -0.085164525 -0.14668074
0.15639818 0.21161108 0.04352176 -0.31098342 0.13088442 0.109973095 0.19236481 0.120115384
-0.10482752 0.21244982 -0.16399573 0.104858465 -0.030568792 -0.07287275 0.024256486 0.04204723
-0.17431913 0.2156122 -0.08214341 -0.17358202 -0.007205639 0.21247886 -0.17078465 -0.16762532
-0.0007009307 0.07034986 0.15826951 -0.18774468 -0.21556361 -0.16592364 0.04479414 -0.03941042
-0.17353146 -0.028886562 -0.100975595 -0.16617836 0.11429186 0.1049861 -0.060353126 0.08175154
0.06527662 -0.22978343 -0.11215186 -0.1836376 -0.010509927 0.14477606 -0.07538313 -0.08598351
-0.2024224 0.1964682 -0.1781465 0.046182163 -0.002523859 -0.046036553 0.20213887 0.031193413
0.18699802 -0.13127208 -0.030487776 0.00187455 0.11719431 0.04828445 -0.11741268 -0.2125077
0.01257926 -0.17502858 -0.1473936 -0.08151314 0.028798534 -0.08780355 -0.054245148 0.18018861
-0.0029787063 -0.15263325 -0.05580517 -0.20506811 0.22198302 -0.14928144 0.21424448 0.015038537

model.2.bias f4 [20]
00000000: 8a93 143c e71f 3d3e af1a 08be e33e e7bd
00000010: c08d 00bd cccc b9bd 2d15 14bd b24f 373e
00000020: 4426 36be 9e17 c03d 4197 433e c5be ae3c
00000030: acd2 033e 3281 d7bd 3994 f33d 93af 483e
00000040: ef51 11be 20f5 aebd 8f05 98bd 4f7e 09be
0.009068379 0.18469201 -0.13291429 -0.112912916 -0.031385183 -0.09072265 -0.036153007 0.17901495
-0.17788035 0.093795046 0.19100668 0.0213312 0.12873334 -0.10522689 0.118935056 0.19598226
-0.14191411 -0.08542848 -0.07422935 -0.13427089

model.4.weight f4 [20, 20]
00000000: 1c9b 533e 310e 28be 7499 493e 76f0 0fbd
00000010: be93 233d ffb5 a83b 4833 093d f3c0 873d
00000020: 1ce9 123d 4bba 4bbe ae55 75bc 5600 023e
00000030: 7d1e 083d 95d8 513c 71ef 0c3e 150a 4c3e
00000040: 2be5 483d 9c33 223e c240 40be 3e55 023b
00000050: 3757 be3c f5bf 4cbc a7de 1dbe f774 9bbd
00000060: 57e7 c9bd 15ac 07bd 81a1 b1bd ffe2 c2bc
00000070: a820 98be 9c8f 77be e3fd 303d 7d28 573e
00000080: 7f09 09be c699 29be bdea 423e 7a76 58bc
00000090: 6361 29bd 88b6 e33d a332 dd3d bac0 693e
000000a0: 8272 c7bc a8ae 8c3d 94b4 ed3c 4792 3fbe
000000b0: 5617 c63d 4d43 0d3d f029 a13d 7755 183d
000000c0: 76db babe ae4f 89ba 9fee 613e 913a 133e
000000d0: edfa 03bd 3d7c 3dbe 55d5 11be 5f00 3a3e
000000e0: e9ce 86be ab99 883e 4259 d93e 39b9 3e3e
000000f0: 4a79 f2bd f695 df3d 7155 413e c2b8 da3d
00000100: c248 9c3d bf40 50be ab57 043e 652c 0a3d
00000110: 62af 073e 7c45 113e 0b95 bfbd 3788 543e
00000120: 0c05 88bc 083e d1bd 41fd 65bd 4886 2b3e
00000130: 1ab3 253e 8392 2a3e 1e17 c13c 32d6 7bbd
00000140: b6f0 213e 5a64 4cbe 0cc7 00bd 5fb0 093e
00000150: c95e 47be 6efb f0bd 9dfc 4f3e c9ac 6ebe
00000160: 7a30 0d3e 1723 5bbd 2bfe 64be a162 94bc
00000170: 27e3 b9bc 72dd 413e f220 043d e535 5e3e
00000180: 8be1 583e c9a1 e23d 26e1 51be 36f0 53be
00000190: 52a9 8dbe de1c db3d 0e93 2bbe 36a2 713e
000001a0: 2704 123e 5bf6 18bd 9022 283e b093 2cbd
000001b0: b83d ae3d 0d09 873e 77ba d13b e648 223e
000001c0: 562b d73d 3b99 43be 91fd c33c 353d 203d
000001d0: 6138 97bd 4348 7ebe 212b b0be 5ab8 b9bc
000001e0: f173 01bd 53ed 4f3e e952 253e 824a bfbc
000001f0: 0084 2e3c 6679 2cbe 417f 9cbd 3ea1 29be
00000200: 3e97 1cbe 6eb6 5c3e 817b 173e 0bad 1d3e
00000210: 1b19 debd dd85 a23d 006c 10be 9375 0d3e
00000220: 8075 efbd 7a00 6b3d 6026 3fbe a89f 323e
00000230: 89c5 1e3e ef12 2ebe a783 80be b8c0 6e3e
00000240: c961 c3bd 0008 18bd 1c3e 5bbe 8a54 423d
00000250: e7ae a73e 4c66 b4bc 5428 233e 0bca 5d3e
00000260: a279 183d 0d5d ddbd 585b f4bd 71fe e33d
00000270: f077 3a3e a100 13be 2866 7cbe ce05 703e
00000280: b254 15be 7a06 e03c 790b 74bb 4b0a f93c
00000290: 3568 92bb 1f69 693e 2af2 543d d99d 41be
000002a0: 47a2 bb3d 3490 2c3e ef4b 29be 555a 2bbe
000002b0: 6b9e 043d af0d 963d c2a7 5f3e 7c27 0a3e
000002c0: 63a9 c43c a9b4 37bc b611 03bd 2052 53be
000002d0: 3bf6 5cbe b0ad 33bd e4eb 71be 69cd 603d
000002e0: 7816 183d 8da1 5bbe 1520 bb3d b291 183a
000002f0: a41d 8f3e 6bf1 473e 9b7d 0dbe c476 493e
00000300: bf7d 42be 4fdc 0dbd 25b7 ba3d cc43 f63d
00000310: c2f2 44bd 8ffe f33b 8908 88be dcb7 a3bd
00000320: 4dac 3d3e 53c9 dd3d d4ec 003e eb91 2bbe
00000330: 60ee 28be 7f4c 16be 7a39 52be 4c9f 61be
00000340: 4459 5cbe e891 523d e1de 84bc 0103 833c
00000350: ac5d f63c 1ad0 23bd 83a8 c03d 2626 24be
00000360: 3414 3bbe ca65 123d 1436 ec3d 2d82 a03d
00000370: 8a46 8b3b cf15 afbb 8ac8 f63d c1f5 0a3d
00000380: 12e6 65bd 9f71 62be 39a6 bf3d 2fb2 2bbe
00000390: c982 133e 9b43 973d 9ee9 533c a6d5 363e
000003a0: a8eb 4ebe 54f4 5dbc e8c8 e4bd 6965 1b3e
000003b0: db73 14be 0bd2 2fbd dfac 6bbd 625b f6bd
000003c0: 05d4 b1bc 3486 3f3e 0256 f63d f711 07bd
000003d0: c052 25be 1a2e ffbd 38b4 3fbe 2419 b8bd
000003e0: 86f6 4dbe e535 663e cff9 aabd 58aa 503e
000003f0: f80c 243d 061b 113e 22b0 59be 4f08 153d
0.20664638 -0.16411664 0.19687444 -0.03514143 0.03993582 0.0051486488 0.03349617 0.06628599
0.03586684 -0.19895284 -0.014974041 0.1269544 0.0332322 0.012807985 0.13763215 0.19925721
0.049046677 0.1584 -0.18774703 0.0019887234 0.023234947 -0.012496938 -0.15416966 -0.07590669
-0.09858578 -0.033123095 -0.086733826 -0.02378988 -0.29712415 -0.24175876 0.043210875 0.21011539
-0.13382529 -0.16562566 0.19034858 -0.013211841 -0.04135264 0.111187994 0.10800674 0.22827426
-0.024346594 0.068692505 0.02901677 -0.18708144 0.0967242 0.03448801 0.07869327 0.03719088
-0.3649556 -0.0010476017 0.22063683 0.1437781 -0.032221723 -0.18504424 -0.14241536 0.18164204
-0.26329735 0.2667974 0.4245091 0.18625344 -0.1183954 0.10917275 0.1888025 0.10679771
0.07631065 -0.20337199 0.12924068 0.033733744 0.13250497 0.14186662 -0.093545996 0.20755087
-0.016603969 -0.1021691 -0.056149725 0.16750443 0.16181603 0.16657452 0.023570593 -0.06148357
0.1581448 -0.19960156 -0.031439826 0.13446186 -0.19469751 -0.117667064 0.20311208 -0.233081
0.13788024 -0.05350026 -0.22362582 -0.018113436 -0.022691322 0.18932131 0.03225798 0.21700247
0.21179788 0.11066014 -0.20496044 -0.20697102 -0.27668244 0.10698865 -0.16755316 0.23597035
0.14259396 -0.037344318 0.16419435 -0.042133033 0.08507866 0.26374093 0.006400402 0.15848121
0.105063125 -0.19101422 0.02392462 0.03912087 -0.073838 -0.24832253 -0.34407905 -0.022670913
-0.03160471 0.20305376 0.16144909 -0.023350958 0.010651588 -0.16843185 -0.07641459 -0.16565415
-0.1529207 0.21553966 0.14793207 0.15398042 -0.10844632 0.07935689 -0.14103699 0.13814382
-0.11692333 0.0573735 -0.18666983 0.17443717 0.15505041 -0.1699941 -0.25100443 0.23315704
-0.095401354 -0.037117004 -0.21410412 0.047443904 0.32750627 -0.022021435 0.15933353 0.21659105
0.037225373 -0.10808764 -0.11931485 0.11132515 0.18209815 -0.14355709 -0.24648345 0.23439714
-0.1458309 0.027346838 -0.0037238284 0.030400416 -0.004467989 0.22794007 0.05198876 -0.1890787
0.09161811 0.16851884 -0.16532873 -0.16733678 0.03237764 0.07326829 0.21841338 0.13491625
0.024006551 -0.011212506 -0.031999312 -0.20636797 -0.21578304 -0.043866813 -0.23625141 0.054883394
0.037130803 -0.21448345 0.091369785 0.000582005 0.27952302 0.19525687 -0.13817446 0.19674212
-0.18993281 -0.03463393 0.09116963 0.1202465 -0.048083074 0.0074461172 -0.26569012 -0.07994053
0.18522759 0.10829415 0.12590343 -0.16754882 -0.16497183 -0.14677618 -0.20529738 -0.22033423
-0.21518427 0.05140868 -0.016219558 0.015992643 0.030073963 -0.039993383 0.09407141 -0.16030177
-0.18269426 0.035741605 0.11533752 0.07837329 0.0042503523 -0.005343176 0.120499685 0.033925775
-0.056127615 -0.22113656 0.09357876 -0.1676719 0.1440536 0.073859416 0.012934117 0.17854938
-0.20207083 -0.013547022 -0.11171132 0.15175404 -0.1449732 -0.042924922 -0.05753791 -0.12029149
-0.021707544 0.18703538 0.120281234 -0.032976117 -0.16144848 -0.12459965 -0.18721092 -0.0898917
-0.20113572 0.22481497 -0.083484285 0.20377481 0.04005143 0.14170465 -0.21258596 0.036384877

model.4.bias f4 [20]
00000000: 5b31 1bbe aea1 373e 414a 1dbe beaa fcbd
00000010: 7dba 83bd cdfb 44bd 88d6 31be e664 7cbd
00000020: 2053 2abe 39c0 2dbe 0077 e0bd c3d7 c3bd
00000030: 0765 e2bd d740 003e 2739 823d 084e 613d
00000040: 101e 503e dffc ae3c 0642 bdbd 23f6 0fbe
-0.15155546 0.1793277 -0.15360357 -0.12337254 -0.06432054 -0.0480917 -0.17366993 -0.06161966
-0.16633272 -0.16967858 -0.109601974 -0.09562638 -0.11054426 0.12524734 0.06358557 0.055006057
0.20323968 0.021360813 -0.092411086 -0.14058737

model.6.weight f4 [10, 20]
00000000: 0ef9 44bb d7c2 543e 65f2 b33e 0200 adbd
00000010: dd6b 9c3d 7256 b1be 960b 5abe 011c 66be
00000020: 7e2d 953a 6887 e0be 0c8d 033e f465 86bd
00000030: 716a 053d 9a26 863e 5d53 73bd b450 863d
00000040: 3b0c a8bd dd0f 18be 7780 933e 92a0 6abe
00000050: 2fd6 3ebd d418 8abe 4cd9 f0be d788 42be
00000060: 4aaf 8b3e 572d 593e b02a 243d ced0 a13e
00000070: 27c8 823d 5354 9a3e e1e8 513d 96d4 343e
00000080: 8b14 14be 6c3a 8fbe 1b9c 783e 7b14 3f3e
00000090: 9ce6 7d3c d66f 783e 0595 1bbe 75eb 113e
000000a0: 7874 803b 386b 9abd 5d56 373e a2f1 68be
000000b0: fd97 d2bd ce28 cebd c402 ce3d c847 bf3d
000000c0: cc52 c1bd a6ee 03be 16fd 03be 5ac4 043d
000000d0: 0a04 83bd a6f3 5bbd 44d1 073e d047 bb3d
000000e0: dff4 ec3d 809f 32be 9002 743e 6755 c1bd
000000f0: 1561 a5bd e7f4 0bbc 3096 d7bd 3d33 57bc
00000100: b7a5 8cbd a3be 0f3e fd6a 953d d94e aebd
00000110: 7f5f 843d e03f 27bd e671 823d 21a4 1bbe
00000120: 17d2 553e a516 233e 03b9 74be 5b00 57be
00000130: 2edb b9bd 966e 8fbd 586c 993d ba94 e3bd
00000140: 2d39 6fbe 6491 b8bd b1cd 5abe 1571 ecbd
00000150: 2a37 8c3d 1e02 653e b040 34bc 67fe 66be
00000160: f497 5e3e 4d7b 4a3e 8c04 313e ac6a 0f3e
00000170: 5d1a 403d 307b 3d3e 2db1 cbbd 475f ccbc
00000180: 0240 003e 8d5e 203d 19d2 64be f67c 5b3d
00000190: 8e15 ee3b c7d7 9f3d 3571 063e a609 49be
000001a0: 5f91 49be 60af a7bd f659 dd3d 5246 0fbd
000001b0: f682 623d fcc1 b33c d58a 20be 841b 053c
000001c0: efb1 b03d d8d8 323d 39e6 12be 3278 003d
000001d0: c9c0 30be 3cd5 963c 8dc9 c13d e060 703d
000001e0: 3f11 8fbd 6456 00be cc44 6b3e 84df be3c
000001f0: 6402 ca3d 55d6 41be e8e6 b63d d5a2 32be
00000200: 187d 4f3c 75c6 7abe ec8c 423e 0440 903b
00000210: 97c9 573e 8f66 f73c f82b e03d 78e5 36be
00000220: 5ba4 6dbd 9ca9 9abd 7bdd 1a3e 2ecf 21be
00000230: 5001 3f3d 3a75 39bb 7517 483d 690a 89bd
00000240: 39f4 a63d dce9 653d 64f4 e2bd fd1c 39be
00000250: 5880 863e 2976 cfbd 3191 39bd bdc5 b93d
00000260: 40e8 debd 65df ab3c a2d3 c13d 44ed 5b3e
00000270: f3bb 5b3c b239 6c3e 6099 0ebe 82ec 3bbe
00000280: 8ccb 233e 5492 b73d 6858 34be 96c6 0d3e
00000290: e62d 05be 97c8 983d 4596 4abd 9ebd 613e
000002a0: fb46 46be d76a ea3d f5f1 fdbc 3354 3dbb
000002b0: 7080 b8bc 3f75 4cbd 136e b5bd 32dc 08be
000002c0: fca1 d3bc b5d0 12be f824 06be 0a3f 1c3e
000002d0: 6170 0ebe 3020 52be 0119 84be 908b 743e
000002e0: 946a d0bd c261 323e 4f58 c9bd 717e 853e
000002f0: 42d8 473e 589f d03c be1f 3fbe 7427 35be
00000300: 9788 073e d035 b63d c53e 7e3d 32b8 61bd
00000310: cc83 1bbe aaf9 c23d f7c3 c6bc fc9a b6bb
-0.0030055675 0.2077745 0.3514587 -0.08447267 0.07637761 -0.34636265 -0.21293482 -0.2247162
0.0011381356 -0.43853307 0.12846774 -0.06562415 0.032572214 0.26201326 -0.059405673 0.06558362
-0.08205458 -0.14849801 0.28808948 -0.22912815 -0.04659098 -0.26972067 -0.47040784 -0.18997513
0.27282172 0.21208702 0.040079772 0.31604618 0.06385832 0.3014246 0.05124748 0.1765922
-0.14460962 -0.2797426 0.242783 0.18660156 0.015496876 0.24261412 -0.15193565 0.14249976
0.003920134 -0.075399816 0.17904039 -0.22748426 -0.10282896 -0.100663766 0.10059121 0.09339863
-0.094396204 -0.12884006 -0.12889513 0.032413818 -0.06397255 -0.053699158 0.13263422 0.091445565
0.11570143 -0.17443657 0.23829103 -0.09440117 -0.080751576 -0.008542276 -0.10526693 -0.013134775
-0.06867545 0.14037566 0.07295797 -0.08511133 0.06463527 -0.0408324 0.06369381 -0.15199329
0.20880924 0.15926607 -0.23898701 -0.2099623 -0.09075008 -0.070035145 0.07491368 -0.11112352
-0.23361655 -0.09012106 -0.21367528 -0.11545006 0.06846459 0.22364089 -0.011001751 -0.22557984
0.21737653 0.19773598 0.17286891 0.14005536 0.046900142 0.18504024 -0.09945903 -0.024947776
0.12524417 0.03915267 -0.22345771 0.05358597 0.007265753 0.07804828 0.13129123 -0.19632587
-0.19684361 -0.08187747 0.10808174 -0.034979172 0.055300675 0.021943085 -0.1567796 0.008124236
0.08627688 0.04366383 -0.14345635 0.031364627 -0.17261042 0.018412225 0.09462271 0.058686137
-0.06985711 -0.12532955 0.22975463 0.02329994 0.09863737 -0.18929417 0.089307606 -0.17444928
0.012664102 -0.24489768 0.1899907 0.0044021625 0.21072994 0.030200271 0.109458864 -0.17860973
-0.05801807 -0.07551882 0.1512355 -0.15801689 0.04663211 -0.0028298632 0.048850495 -0.06691439
0.081520505 0.05613123 -0.1108177 -0.18077464 0.26269794 -0.10129959 -0.04530448 0.09070919
-0.10884142 0.020980546 0.09464194 0.21477228 0.01341151 0.23068884 -0.13925695 -0.1835194
0.15995616 0.08963457 -0.1761185 0.13845286 -0.1300579 0.074601345 -0.049459714 0.2204499
-0.19363014 0.11446159 -0.030999163 -0.0028889298 -0.022522181 -0.049916502 -0.088588856 -0.13365248
-0.025834076 -0.14337428 -0.1310004 0.15258422 -0.13910057 -0.20520091 -0.25800326 0.23881364
-0.10176578 0.17420104 -0.09831297 0.2607303 0.1951609 0.025466606 -0.18664452 -0.17690831
0.13235699 0.08896983 0.06207158 -0.055107303 -0.15186995 0.09520276 -0.024263365 -0.005572675

model.6.bias f4 [10]
00000000: 6aec 003e 81b3 a8bd 7eca 993d f34f 5f3e
00000010: 1f30 b4bd e5dd 9cbc 9456 8f3c 4d22 23bd
00000020: 83e0 4e3c 9c19 fd3c
0.12590185 -0.08237363 0.075093254 0.21807842 -0.08798241 -0.019148776 0.017497338 -0.039827634
0.01262677 0.030896
